checkpoint2000.pth (torch_old, 28463 bytes, 6 tensors)

fc1.weight f4 [64, 37]
0	0xbe430e9b	-0.1904854
1	0x3e3c8a64	0.18412167
2	0xbe17c6c6	-0.1482192
3	0xbd1441a7	-0.036195423
4	0xbefa2eb5	-0.4886376
5	0x3e253b08	0.161358
6	0xbd8d1c64	-0.06890181
7	0x3c88c181	0.016693832
8	0xbef58a71	-0.47957185
9	0xbf5be1c7	-0.85891384
10	0xbcd2106b	-0.025642594
11	0xbe212b38	-0.15739143
12	0xbd3cdaa1	-0.04610694
13	0xbdf9eb69	-0.12203104
14	0x3d534dfa	0.051588036
15	0xbe2821c5	-0.16419132
16	0x3e921e7b	0.2853888
17	0xbe18f2c7	-0.14936362
18	0x3dbf6ebd	0.093472935
19	0xbf4c4922	-0.7979909
20	0x3d9d139b	0.07669755
21	0x3e8047c2	0.25054747
22	0x3dd13578	0.102152765
23	0xbc8ff46f	-0.01757261
24	0xbe26e804	-0.16299444
25	0xbe1ca335	-0.15296634
26	0x3efb7ed8	0.49120212
27	0x3dc1a308	0.09454924
28	0xbefbca05	-0.49177566
29	0xbf99fca6	-1.2030227
30	0x3d4857d5	0.04891189
31	0xbe210577	-0.15724741
32	0x3d0b1fb2	0.033965774
33	0xbf3bcfe9	-0.7336412
34	0xbf80dd9b	-1.0067629
35	0xbd059c0c	-0.03261952
36	0xbb292e21	-0.0025814848
37	0x3dbe66ea	0.09296973
38	0x3e9c0ef6	0.30480164
39	0xbcae4672	-0.021273825
40	0x3d03a3e4	0.03213872
41	0xbdc98481	-0.09839726
42	0x3d2235cd	0.03960209
43	0xbc16c96e	-0.009203298
44	0xbd5240ae	-0.051331215
45	0xbe8921f8	-0.2678373
46	0xbee9e044	-0.45678914
47	0x3e1b324f	0.1515591
48	0xbe012164	-0.12610394
49	0x3e0f6ee7	0.1400715
50	0x3e47257f	0.19447897
51	0x3efc2176	0.4924428
52	0x3dfa108b	0.122101866
53	0xbd58304d	-0.05278044
54	0x3e1bbb26	0.1520811
55	0x3e0c8dfb	0.13726036
56	0xbdb21404	-0.08695224
57	0xbd1b603d	-0.037933577
58	0xbd5b07e1	-0.05347431
59	0xbda37244	-0.07980779
60	0xbc9f9179	-0.019478546
61	0xbc970f2a	-0.018439848
62	0xbddd3ce1	-0.10802627
63	0x3e1737aa	0.14767328
64	0x3e3463f1	0.1761625
65	0x3da0dfaa	0.078551605
66	0xbe08b5ca	-0.13350597
67	0x3cb1a884	0.0216868
68	0x3da7123b	0.08157774
69	0x3e26f552	0.1630452
70	0x3e995e05	0.29954544
71	0x3ec19944	0.37812245
72	0x3d53de4a	0.051725663
73	0xbaeca55e	-0.0018054654
74	0x3e4bc3bb	0.19898884
75	0xbdb5c94d	-0.08876286
76	0x3e559b82	0.20860103
77	0x3ce0867a	0.027407873
78	0x3d83158f	0.06400596
79	0xbf9b33c5	-1.2125174
80	0x3e18f982	0.1493893
81	0x3ee4ff0e	0.4472584
82	0xbea07148	-0.31336427
83	0xbf15cddc	-0.5851724
84	0x3e9190eb	0.28430876
85	0xbe02572c	-0.12728566
86	0xbc94e83e	-0.018177148
87	0xbe3b7519	-0.18306388
88	0xbe54880e	-0.20755026
89	0x3c7e68ec	0.015527945
90	0x3e023fa0	0.12719584
91	0x3dec3fe9	0.115356274
92	0xbe706db0	-0.23479342
93	0x3ee47f9f	0.44628617
94	0x3cb5b50d	0.022181058
95	0xbe27dee9	-0.16393627
96	0x3e64b89a	0.22336045
97	0xbe93f0b0	-0.28894567
98	0xbcc9d061	-0.024635496
99	0xbe9cff67	-0.30663607
100	0x3eaa1569	0.3321946
101	0x3e109ba5	0.14121874
102	0xbe28359f	-0.16426705
103	0xbe1f2aa0	-0.15543604
104	0xbec6dd47	-0.38840696
105	0x3dc4dba7	0.09612208
106	0x3d7ad328	0.06123653
107	0xbdaf99ca	-0.08574255
108	0x3cc1041c	0.02356153
109	0xbd94ee49	-0.07272012
110	0xbc91a55d	-0.017779047
111	0x3e9084d1	0.2822633
112	0xbf31c618	-0.6944289
113	0x3e101ac0	0.14072704
114	0xbe1c4d0a	-0.15263763
115	0xbf5f4788	-0.87218523
116	0xbea59303	-0.32338724
117	0x3d811817	0.06303423
118	0x3ed2ee41	0.41197398
119	0xbeb649a0	-0.35603046
120	0xbf295b64	-0.66155076
121	0xbe007076	-0.125429
122	0x3e08a3e4	0.1334377
123	0xbd2775bc	-0.040883765
124	0xbe275c21	-0.16343738
125	0x3ccefed5	0.025267998
126	0xbe53c387	-0.20680057
127	0x3bdc530d	0.0067237676
128	0x3e07f62d	0.13277502
129	0xbea73d54	-0.32663977
130	0xbf1ccc02	-0.6124879
131	0x3e4ac0d9	0.19800128
132	0xbe7bc785	-0.2458783
133	0x3c4412b4	0.01196735
134	0xbd96d5a7	-0.0736497
135	0xbdf833db	-0.12119266
136	0xbe51a236	-0.20472035
137	0x3e4a3c6e	0.19749615
138	0x3e066be7	0.13127099
139	0x3e3f5886	0.18686113
140	0xbfbbc5f2	-1.4669783
141	0x3dadc277	0.08484357
142	0x3eba5826	0.36395377
143	0xbdbe8f28	-0.09304649
144	0xbe87227d	-0.263935
145	0xbed4c515	-0.41556612
146	0x3dc0a8c9	0.09407193
147	0x3cfdbf89	0.03097512
148	0xbe3af21e	-0.18256423
149	0x3d4f5fda	0.05062852
150	0xbe87907b	-0.26477417
151	0x3b5bb373	0.0033523708
152	0xbe0f4ce7	-0.1399418
153	0xbd9d25c8	-0.07673222
154	0x3f015aa9	0.5052896
155	0xbeeb91a2	-0.46009547
156	0xbf21fd71	-0.63277346
157	0xbe8f0685	-0.27934662
158	0x3e834cb8	0.2564447
159	0xbf06b899	-0.52625424
160	0xbd36aad1	-0.044596497
161	0xbf05619d	-0.5210207
162	0xbf8257c4	-1.0183034
163	0xbc14f08e	-0.009090556
164	0xbdd73135	-0.10507432
165	0x3d52a8ea	0.05143062
166	0xbda34d63	-0.07973745
167	0x3cee00a2	0.029053036
168	0xbc4f4080	-0.012649655
169	0xbd0a7ccf	-0.033810433
170	0x3e6b114b	0.22955815
171	0x3da57111	0.08078206
172	0xbde68122	-0.11255099
173	0x3ec39053	0.38196048
174	0xbeb6e511	-0.3572164
175	0xbefb7c91	-0.49118474
176	0xbf2a83a2	-0.66607106
177	0xbf2f4aba	-0.684734
178	0x3d003ab4	0.031305984
179	0xbdd9b45b	-0.10630103
180	0x3ea754e4	0.32681954
181	0x3eb4bc77	0.35300037
182	0xbd9dad25	-0.0769904
183	0xbd318fad	-0.04334991
184	0xbc67e861	-0.014154525
185	0xbe1579d5	-0.14597256
186	0xbd84d2cd	-0.064855196
187	0xbd86263f	-0.065502636
188	0x3e851c4b	0.25998148
189	0x3e10998e	0.14121076
190	0xbd282e6d	-0.0410599
191	0x3e7e5d8b	0.24840371
192	0xbdd9c854	-0.10633913
193	0xbeaa247d	-0.33230963
194	0xbe286886	-0.16446123
195	0x3dad3693	0.08457675
196	0xbee25e7b	-0.44212708
197	0x3d1ed40a	0.038776435
198	0xbe327a37	-0.17429434
199	0xbd197b9c	-0.0374714
200	0x3d78f614	0.060781553
201	0x3c321d5b	0.010871257
202	0x3e09a961	0.13443519
203	0xbf1c8c3e	-0.6115149
204	0x3e04f91d	0.12985654
205	0x3de8477a	0.11341758
206	0x3aade3a4	0.0013266695
207	0xbdb75348	-0.089514315
208	0x3da947f5	0.08265678
209	0x3e8ea278	0.2785833
210	0xbed5682b	-0.41681036
211	0x3decdbd4	0.115653664
212	0x3e58fcdc	0.21190208
213	0x3c981089	0.018562572
214	0x3ecc02cb	0.3984588
215	0x3cfdf4ad	0.03100046
216	0xbd8b7dd3	-0.068111084
217	0x3e24a33d	0.16077895
218	0xbf025c53	-0.50922126
219	0xbfba5725	-1.4557844
220	0xbd068619	-0.03284273
221	0xbc46c213	-0.012131232
222	0xbec0a019	-0.37622145
223	0xbe178c0f	-0.14799522
224	0x3df995db	0.12186786
225	0xbd3d2f06	-0.046187423
226	0xbe8428a3	-0.25812253
227	0xbe646901	-0.22305681
228	0x3d4dcda8	0.050244957
229	0xbdfab184	-0.1224089
230	0xbe7fdf5a	-0.24987546
231	0x3ec42e67	0.38316652
232	0xbe80ded1	-0.25169995
233	0x3c1856cc	0.009298038
234	0x3e8b6141	0.27222636
235	0xbe933392	-0.28750283
236	0x3e7569f0	0.23966193
237	0xbea19e9a	-0.31566316
238	0xbeb51ff5	-0.35375944
239	0x3e667aaa	0.2250773
240	0xbdcefde3	-0.10107019
241	0x3ba850df	0.0051365937
242	0xbe71ab4f	-0.23600505
243	0x3cee0656	0.029055756
244	0xbe4c0c5b	-0.19926588
245	0x3dd5ab4b	0.10433062
246	0xbd04d964	-0.032433882
247	0xbe330f2c	-0.17486256
248	0xbe24255f	-0.16029881
249	0xbd18f7a3	-0.03734554
250	0xbe575e23	-0.21032004
251	0x3d277b96	0.040889345
252	0xbeab82df	-0.33498284
253	0xbe7e20ca	-0.24817196
254	0x3e4cbb58	0.19993341
255	0xbe31aa84	-0.17350203

fc1.bias f4 [64]
0	0x3e534769	0.2063271
1	0x3c4593d4	0.012059171
2	0xbe0e658a	-0.13905922
3	0xbda1805b	-0.0788581
4	0x3e19bf2a	0.1501433
5	0xbe3de962	-0.1854606
6	0xbde2fbf3	-0.11083212
7	0x3d2d018e	0.04223781
8	0x3dec46fc	0.11536977
9	0xbe2ac018	-0.1667484
10	0x3e04b055	0.1295789
11	0x3e83e5a9	0.25761154
12	0x3ee30c91	0.44345525
13	0x3e8d0c27	0.27548334
14	0xbe047067	-0.12933503
15	0x3bf2bd5d	0.007407828
16	0x3d2f48f6	0.04279419
17	0x3d4f40cd	0.05059891
18	0x3a5d5953	0.00084437913
19	0xbe65ee12	-0.22454098
20	0xbd6b270e	-0.057410292
21	0xbd80936f	-0.06278121
22	0x3d2c723a	0.042101122
23	0xbd2aebf5	-0.041728932
24	0xbdde1aa9	-0.10844929
25	0x3e0755a9	0.1321627
26	0xbe0bb293	-0.1364234
27	0xbe8d647b	-0.27615723
28	0x3e371b01	0.17881395
29	0x3e2a38d0	0.16623235
30	0xbd460311	-0.048342768
31	0xbda31013	-0.0796205
32	0x3dedc0d0	0.11609042
33	0xbd20ce57	-0.03925928
34	0xbdd53bac	-0.10411772
35	0xbe0636b5	-0.13106807
36	0xbda08406	-0.078376815
37	0xbd51ee9a	-0.05125294
38	0xbce1c96f	-0.027561871
39	0xbe1a714e	-0.15082285
40	0xbd95f804	-0.07322696
41	0x3d604b78	0.054759473
42	0x3dbb50e5	0.09146289
43	0x3d547845	0.05187251
44	0xbdbf4c84	-0.09340766
45	0xbde8de7a	-0.11370559
46	0xbca6398d	-0.020291114
47	0xbe09cdcd	-0.13457413
48	0xbe9f36a4	-0.31096375
49	0x3d463873	0.048393678
50	0xbe2f3a61	-0.17112114
51	0x3d8c38ac	0.06846747
52	0xbd35bce3	-0.04436959
53	0xbd90f50b	-0.07077988
54	0xbe431636	-0.19051442
55	0xbbe7bc4b	-0.007072007
56	0x3e0dae7e	0.13836095
57	0xbe2730dd	-0.16327234
58	0xbd5917ad	-0.053001095
59	0xbe274067	-0.16333161
60	0xbe112eb1	-0.14177968
61	0x3e62a9b1	0.22135045
62	0x3db51d28	0.08843452
63	0x3d29d64a	0.041464128

fc2.weight f4 [64, 64]
0	0x3e9a29ce	0.3011002
1	0x3d259963	0.040429484
2	0xbe868c30	-0.2627883
3	0x3ed59c82	0.41720968
4	0xbe20e468	-0.1571213
5	0x3e4a64f4	0.19765073
6	0x3cd97539	0.026545154
7	0xbe817075	-0.2528111
8	0xbedd96de	-0.43279165
9	0x3cc69a92	0.024243627
10	0x3dcce28f	0.1000415
11	0xbe1c2535	-0.15248568
12	0xbdd461e7	-0.10370236
13	0xbd6aed24	-0.05735506
14	0xbe0dffe0	-0.1386714
15	0xbc301634	-0.010747481
16	0xbdc07058	-0.09396428
17	0xbf5ffc3b	-0.8749425
18	0xbe81790f	-0.25287673
19	0x3ea1e63c	0.31620967
20	0x3e024a1a	0.1272358
21	0xbdb465c6	-0.08808474
22	0x3f1dcab7	0.61637443
23	0xbe90261b	-0.28154072
24	0xbe706a58	-0.23478067
25	0xbecfa0f9	-0.405525
26	0x3ea39709	0.31951168
27	0x3d63ce41	0.05561662
28	0x3d284cf3	0.04108901
29	0x3da1fe23	0.07909801
30	0x3d918807	0.07106023
31	0x3dd013f2	0.10160054
32	0xbe1799b5	-0.14804728
33	0xbdda7799	-0.10667343
34	0xbe52f8c3	-0.20602708
35	0xbf059203	-0.5217592
36	0x3b13424f	0.0022469943
37	0x3d83082a	0.063980415
38	0x3e226de8	0.15862238
39	0xbdc243d3	-0.09485593
40	0xbefab739	-0.48967913
41	0x3dca169d	0.098675944
42	0x3ee3a389	0.44460705
43	0xbd3b9cf5	-0.045803983
44	0x3af0f1cf	0.0018382611
45	0xbe90ff78	-0.28319907
46	0x3e098a6a	0.13431707
47	0x3deb5f8b	0.11492833
48	0xbdf3a2ca	-0.11896284
49	0x3ed9ddfb	0.4255217
50	0xbe10736e	-0.14106533
51	0xbe191b4e	-0.14951822
52	0x3d1a0d22	0.03761018
53	0x3f062f6b	0.52416104
54	0xbe00ca45	-0.1257716
55	0x3e19ff5f	0.15038823
56	0xbd68b0cb	-0.056809228
57	0xbd45a151	-0.048249546
58	0xbe845c02	-0.25851446
59	0x3e117143	0.14203362
60	0x3e140397	0.14454494
61	0x3dbb9ddd	0.091609694
62	0xbebb07c0	-0.3652935
63	0xbd44e9c9	-0.048074517
64	0xbdb10d30	-0.086450934
65	0x3db8acf3	0.090173624
66	0x3c425e0d	0.011863244
67	0xbd3f7b61	-0.046748523
68	0x3eb5dde8	0.35520864
69	0xbc845d3a	-0.016157735
70	0x3e2ef6c5	0.17086323
71	0x3dd99926	0.10624914
72	0xbe29d2cf	-0.16584323
73	0xbe204ee7	-0.15655099
74	0xbe5eacc0	-0.21745586
75	0x3e94b19d	0.29041758
76	0xbe6ce543	-0.23134331
77	0x3da730ac	0.0816358
78	0xbe27f4ce	-0.1640198
79	0xbdc44f37	-0.095854215
80	0x3de7c20a	0.11316307
81	0xbec70672	-0.38872105
82	0xbd977e9a	-0.07397194
83	0x3ed2f2fe	0.41201013
84	0xbda78086	-0.08178811
85	0xbccd4ff8	-0.025062546
86	0xbe277834	-0.16354448
87	0xbf0a1108	-0.5393224
88	0xbe81a7a0	-0.253232
89	0xbe063bfb	-0.13108818
90	0xbebf471d	-0.37358943
91	0xbe2a715e	-0.16644809
92	0x3ee39b27	0.4445431
93	0xbeab7ead	-0.33495083
94	0xbea54ed6	-0.3228671
95	0x3eb487fc	0.35259998
96	0xbdde53c8	-0.10855824
97	0x3d1ed6bb	0.038779
98	0x3e0a23d3	0.13490228
99	0xbe9ec5a1	-0.31010154
100	0xbe13516f	-0.14386533
101	0x3ec9519f	0.39320084
102	0x3e1e0c4a	0.15434375
103	0x3e2bd959	0.1678213
104	0xbec14e6c	-0.37755144
105	0x3e25153b	0.1612138
106	0x3e4bada0	0.19890451
107	0x3e0e575a	0.1390051
108	0x3db49e04	0.088192016
109	0xbe800b03	-0.250084
110	0x3e37bd64	0.1794334
111	0x3e27ca8f	0.16385864
112	0xbe491e02	-0.19640353
113	0xbe41a474	-0.1891039
114	0xbd3c5d5d	-0.045987476
115	0xbe426fde	-0.18987986
116	0xbd88960c	-0.06669244
117	0xbec822b7	-0.39088985
118	0x3d9d8ffd	0.07693479
119	0x3e16cdf6	0.14727005
120	0x3cd31668	0.02576752
121	0xbd8af5e8	-0.06785184
122	0x3ec1dd0d	0.3786396
123	0xbd33100d	-0.04371648
124	0x3e7f816b	0.24951713
125	0xbd3ba6b3	-0.045813274
126	0xbe2ed7d6	-0.17074522
127	0xbe8e6472	-0.2781101
128	0xbcff93cb	-0.031198403
129	0xbcfbba3b	-0.03072845
130	0x3e20f8b2	0.1571987
131	0x3e494e56	0.19658789
132	0xbe15bf27	-0.146237
133	0xbdabc928	-0.08387977
134	0x3e11362e	0.14180824
135	0xbee14f81	-0.4400597
136	0xbd587a00	-0.052850723
137	0x3d22f3c7	0.039783265
138	0x3ecd6235	0.4011399
139	0xbe0f50a0	-0.139956
140	0x3c6bd296	0.014393469
141	0x3dca6e24	0.09884289
142	0xbec669cd	-0.38752595
143	0x3e273474	0.16328603
144	0xbdbb853b	-0.09156271
145	0x3c1136fe	0.008863209
146	0x3e2f45d5	0.17116483
147	0xbe67ead8	-0.2264818
148	0xbef8683d	-0.48517027
149	0x3e41953e	0.18904588
150	0x3db85c64	0.09001997
151	0xbecd4b15	-0.40096346
152	0x3cfeb4c7	0.03109206
153	0x3e9d4c8b	0.3072246
154	0x3e93f9d1	0.28901532
155	0x3e9b3329	0.3031247
156	0xbee1776a	-0.44036418
157	0xbe2289b7	-0.15872847
158	0x3d265b3f	0.040614363
159	0x3dc96bf4	0.098350435
160	0xbe8011d5	-0.25013605
161	0x3e0996fe	0.13436505
162	0x3d0a9590	0.03383404
163	0x3debe3dd	0.11518071
164	0x3dc559c7	0.09636264
165	0xbe1f7eab	-0.15575664
166	0x3e9a2975	0.30109754
167	0xbe4c2e5f	-0.19939564
168	0xbd69113c	-0.0569012
169	0x3e1be395	0.15223534
170	0xbe0889bf	-0.13333796
171	0xbdb02414	-0.08600631
172	0x3e416db0	0.18889499
173	0x3e6d7153	0.23187761
174	0xbcd3b9a5	-0.025845358
175	0x3d87b875	0.06626979
176	0xbdc08d22	-0.09401919
177	0xbec4df09	-0.38451412
178	0xbe12dabb	-0.14341252
179	0xbb4b332b	-0.003100584
180	0x3d94b6cc	0.07261428
181	0xbe155b2d	-0.14585562
182	0x3e24133c	0.16022962
183	0x3c9dfc5c	0.019285373
184	0x3e2e9d16	0.17052111
185	0xbefc5a1c	-0.49287498
186	0xbda95f52	-0.08270134
187	0x3db7923e	0.0896344
188	0x3b1b3447	0.0023682283
189	0xbe23366a	-0.15938726
190	0x3e11a7bd	0.14224143
191	0xbee3c4f3	-0.44486198
192	0x3dce1ceb	0.100641094
193	0xbdf68ba4	-0.12038353
194	0x3d011cbc	0.031521544
195	0xbe6c2625	-0.23061426
196	0x3ca94a96	0.020665448
197	0xbe07cdbc	-0.13262075
198	0xbe4710b9	-0.19439973
199	0x3c3aefe7	0.011409736
200	0xbd5e2fa6	-0.05424466
201	0xbe0cd392	-0.13752583
202	0xbe370727	-0.17873822
203	0x3d36eaca	0.044657506
204	0xbda705b3	-0.08155384
205	0xbd812183	-0.0630522
206	0xbe5d02af	-0.21583055
207	0xbe090c10	-0.13383508
208	0x3c8b5503	0.01700831
209	0xbe069e08	-0.13146222
210	0x3e24e953	0.16104631
211	0xbf105b5b	-0.563894
212	0x3ecc1ddb	0.39866528
213	0x3e1ed54c	0.15511054
214	0x3c8aef56	0.016959827
215	0x3ddacc22	0.106834665
216	0x3e8526be	0.2600612
217	0xbeb6dcf5	-0.35715452
218	0x3f32655c	0.6968591
219	0x3e14a515	0.14516099
220	0x3e905880	0.2819252
221	0x3b0b4749	0.0021252206
222	0x3e6d76a6	0.23189792
223	0xbdbb6442	-0.09149982
224	0xbd29b518	-0.04143247
225	0x3ea79bbf	0.32736012
226	0x3da8faf9	0.08250994
227	0xbe8c4994	-0.27399886
228	0xbe807d06	-0.25095385
229	0xbdb9a25f	-0.09064173
230	0x3f4051ef	0.7512502
231	0x3e82248c	0.25418508
232	0xbe701746	-0.23446378
233	0xbd037c99	-0.032101247
234	0x3eaecc7e	0.3414039
235	0xbe0d7886	-0.13815507
236	0x3db6cea0	0.08926129
237	0x3caab828	0.020839766
238	0xbdaf1837	-0.085495405
239	0xbe8a2c8b	-0.2698711
240	0xbd61c90e	-0.05512338
241	0x3efac2d6	0.48976773
242	0xbdbba15a	-0.09161635
243	0xbe7e39dc	-0.24826759
244	0x3dfb673d	0.122755505
245	0xbdd23cb1	-0.10265482
246	0x3eafd321	0.34340766
247	0x3eaacd2d	0.33359662
248	0xbdbb9d5f	-0.091608755
249	0xbdb38dd3	-0.08767285
250	0xbe3e2d88	-0.18572056
251	0xbc782e74	-0.015147794
252	0xbe7f1bf9	-0.24913014
253	0x3cc77161	0.024346055
254	0xbecee851	-0.40411618
255	0xbe461785	-0.1934491

fc2.bias f4 [64]
0	0x3d13eae7	0.036112692
1	0xbd10c5c5	-0.035344858
2	0x3dec3b5c	0.115347594
3	0xba37dc66	-0.0007013738
4	0x3ed49b06	0.41524523
5	0xbdc74d23	-0.097315095
6	0xba32a5e0	-0.00068148784
7	0x3d262d27	0.040570404
8	0x3f0d2d5d	0.55147344
9	0x3f3d8c3e	0.7404212
10	0xbe48f9a5	-0.19626482
11	0x3e204a9b	0.1565346
12	0x3eb255c4	0.3483106
13	0xbddb1737	-0.10697787
14	0xbe07e81c	-0.13272136
15	0x3e7bc3db	0.24586432
16	0x3e98ebc1	0.29867366
17	0xbdb64a4d	-0.089008905
18	0xbdd88dd5	-0.10573927
19	0x3e94693c	0.28986537
20	0x3e270293	0.16309576
21	0x3f0f082c	0.55871844
22	0xbea8f415	-0.3299872
23	0xbe391e01	-0.18077852
24	0xbd86ac58	-0.06575841
25	0xbe718a0a	-0.23587814
26	0xbd63b8d8	-0.055596203
27	0xbdff403c	-0.124634236
28	0xbd8c64b4	-0.06855145
29	0x3e1583b9	0.1460103
30	0x3d8637ed	0.06553636
31	0xbcad52e3	-0.021157688
32	0x3c39b6a9	0.0113350535
33	0x3dd8fa49	0.10594613
34	0x3d01f6b8	0.03172943
35	0xbc344d03	-0.011004689
36	0x3dd71eaf	0.10503899
37	0xbe91f40a	-0.285065
38	0xbcd89568	-0.02643843
39	0x3c8b831f	0.017030297
40	0xbdb0fa82	-0.086415306
41	0x3f504512	0.8135539
42	0x3f2b7831	0.6698027
43	0xbe5a4b88	-0.21317875
44	0x3d263c9e	0.040585153
45	0xbdd72b2c	-0.10506281
46	0x3f1fa04d	0.62353975
47	0xbe35ae24	-0.1774221
48	0x3e02e926	0.12784252
49	0xbd972f50	-0.07382071
50	0x3dd1774b	0.102278315
51	0x3f3e8baf	0.7443189
52	0x3e15988f	0.14608978
53	0xbea17606	-0.31535357
54	0x3eeedcae	0.4665274
55	0xbd3eaa55	-0.04654916
56	0xbe7dcf5f	-0.24786137
57	0xbd80c71e	-0.062879786
58	0xbd004701	-0.031317715
59	0x3d9a60cb	0.07537993
60	0x3d3a21ef	0.045442518
61	0x3ec133f7	0.3773496
62	0x3da82995	0.08211056
63	0x3dd36941	0.1032281

fc3.weight f4 [4, 64]
0	0x3e7cdb81	0.24693109
1	0x3d4ba54d	0.04971819
2	0x3bd055a1	0.006357864
3	0x3cdcf368	0.026971534
4	0x3e276604	0.1634751
5	0xbcd40661	-0.025881948
6	0x3e440d70	0.19145751
7	0x3cf9f050	0.030510098
8	0x3e25b0f5	0.16180785
9	0x3e473917	0.19455372
10	0xbe88385a	-0.26605493
11	0x3c96524d	0.018349791
12	0x3e4cf308	0.20014584
13	0x3e453bb9	0.19261064
14	0xbe5ca485	-0.21547134
15	0x3b1d4a39	0.002400054
16	0x3e174f54	0.14776355
17	0xbe8f4d2f	-0.27988574
18	0xbc6dde45	-0.014518325
19	0x3e1833d7	0.14863525
20	0x3d3665d5	0.04453071
21	0x3e8391a0	0.2569704
22	0xbdbc5e6a	-0.091976956
23	0xbdab69bd	-0.08369777
24	0x3e35f8e4	0.17770725
25	0xbe057f99	-0.13036956
26	0xbe474200	-0.19458771
27	0xbd5eb3fb	-0.05437086
28	0x3e8a6c2b	0.2703565
29	0x3f03b0be	0.5144156
30	0xbf45d0da	-0.7727181
31	0x3b6b90f0	0.0035944544
32	0x3da6a00b	0.081359945
33	0x3f03937a	0.51396906
34	0x3bf3a0b1	0.0074349274
35	0x3e3e7923	0.18600897
36	0x3e1b2d34	0.15153962
37	0xbdf0e8b3	-0.11763134
38	0xbf075390	-0.5286188
39	0x3e619fd5	0.22033627
40	0x3e5dec7a	0.2167224
41	0x3e7dc8b4	0.24783593
42	0x3e4f3b54	0.20237476
43	0xbe963577	-0.29337665
44	0x3e7a85b9	0.24465074
45	0x3c43f915	0.011961241
46	0x3e8422b6	0.25807732
47	0x3ef17069	0.47156075
48	0x3daba9b4	0.08381978
49	0x3e6c779f	0.23092507
50	0x3e5260c0	0.2054472
51	0x3e4f86c6	0.20266256
52	0x3e3e4f4b	0.18584935
53	0xbd6bd75d	-0.057578433
54	0x3e09e17b	0.1346492
55	0x3b850aa6	0.0040601073
56	0xbed2cfd9	-0.411742
57	0x3da39292	0.079869404
58	0xbea1289e	-0.314763
59	0x3dae9c15	0.08525864
60	0x3c575f6a	0.013145307
61	0x3e10717f	0.14105795
62	0xbdb0ecf4	-0.08638945
63	0x3db96d55	0.090540566
64	0x3e989cbf	0.29807088
65	0x3e6fee91	0.2343085
66	0x3deffb6d	0.117178775
67	0xbe2e637b	-0.17030136
68	0x3e7f080e	0.24905416
69	0xbcf1857f	-0.029482601
70	0x3e472231	0.19446637
71	0xbe0baffa	-0.13641348
72	0x3e3f3da6	0.18675861
73	0x3e6776cf	0.22603916
74	0xbddb4467	-0.10706406
75	0x3dcc86bb	0.09986635
76	0x3e3fc276	0.18726525
77	0x3e8e1def	0.27757213
78	0xbe8b1ad0	-0.27168894
79	0x3e7d5dcf	0.24742816
80	0x3e049850	0.12948728
81	0xbd820922	-0.06349398
82	0x3e45abe9	0.1930386
83	0x3d74bacf	0.059748467
84	0x3e373f48	0.17895234
85	0x3e878aae	0.26472992
86	0x3c9fda5d	0.019513303
87	0x3d2c41e0	0.04205501
88	0x3e61bc71	0.22044541
89	0xbe4f946b	-0.2027146
90	0xbe8345e2	-0.25639254
91	0xbe69eac3	-0.2284346
92	0x3f049339	0.51787144
93	0x3f1a69d6	0.6031774
94	0x3d98d87c	0.07463166
95	0x3d636239	0.055513594
96	0x3e015d2c	0.12633198
97	0x3f47e6d2	0.7808658
98	0xbe2edce9	-0.17076458
99	0x3ec59451	0.3858972
100	0x3db31a31	0.0874523
101	0xbcd13a18	-0.025540397
102	0xbc420090	-0.011840954
103	0x3c855d69	0.016279893
104	0xbe2fd50b	-0.17171113
105	0x3e86a3d8	0.26296878
106	0x3e1b85de	0.15187785
107	0xbe430e41	-0.19048406
108	0x3ef237fe	0.47308344
109	0x3d8b5900	0.06804085
110	0x3e844088	0.25830483
111	0x3f216ba0	0.6305485
112	0xbd1c28ec	-0.038124964
113	0x3d9f380f	0.07774364
114	0x3e52e495	0.2059501
115	0x3e0db87b	0.13839905
116	0x3b09ee32	0.0021046516
117	0xbe2d18c9	-0.16903986
118	0x3df61c7c	0.12017152
119	0xbe64907d	-0.22320743
120	0xbf0af70f	-0.5428323
121	0x3cade934	0.021229364
122	0x3ef08013	0.46972713
123	0x3e8ada3a	0.2711962
124	0xbe24020b	-0.16016404
125	0xbc4f7470	-0.012662038
126	0xbe0ab917	-0.13547169
127	0x3bd7497d	0.00657004
128	0x3eadaf92	0.33923012
129	0x3e977ece	0.29588932
130	0x3de601b6	0.11230795
131	0x3e94058e	0.28910488
132	0x3e4049b9	0.18778123
133	0x3ea7a812	0.32745415
134	0x3e56504d	0.2092907
135	0xbdbb3a25	-0.091419496
136	0x3dfb73a9	0.1227792
137	0x3e3ce9bf	0.18448542
138	0xbe8d4e90	-0.27599
139	0x3ee9c47b	0.45657715
140	0x3da25fec	0.07928452
141	0xbec49493	-0.38394603
142	0xbec39430	-0.38198996
143	0x3e22565d	0.15853257
144	0xbd8081db	-0.06274768
145	0xbedf6e7e	-0.43638986
146	0x3e894f4a	0.26818305
147	0x3dd1fa77	0.102528505
148	0x3e5d4edc	0.21612114
149	0x3e846a70	0.25862455
150	0xbe105baf	-0.14097475
151	0x3d5eda9d	0.054407705
152	0x3ee5c96c	0.44880235
153	0xbdfef731	-0.12449492
154	0xbd3f4d82	-0.046704777
155	0xbec5c1e1	-0.3862448
156	0x3db2f3de	0.0873792
157	0x3e0b1b5d	0.13584657
158	0xbe174994	-0.14774162
159	0xbda22232	-0.079166785
160	0xbf15aada	-0.58463824
161	0x3e73f628	0.2382437
162	0x3e44000d	0.19140644
163	0xbe013832	-0.12619093
164	0xbdb44600	-0.08802414
165	0xbd7aca1e	-0.06122791
166	0xbe5fcd92	-0.21855763
167	0x3d0a79bc	0.0338075
168	0xbf250800	-0.6446533
169	0x3e74aa32	0.2389305
170	0x3e6be384	0.23036009
171	0x3d6296bf	0.055319544
172	0x3dffcdac	0.12490401
173	0xbf0648ed	-0.52455026
174	0x3e73743f	0.23774813
175	0x3f2ac390	0.66704655
176	0x3d0c88a1	0.034309987
177	0x3e4e1d01	0.20128252
178	0x3d4024b1	0.04690999
179	0x3e9ad2ad	0.30238858
180	0x3cc7e188	0.024399534
181	0x3e3133e3	0.1730495
182	0x3e3667fc	0.17813104
183	0x3da80fa5	0.08206109
184	0xbf44066d	-0.76572305
185	0x3d831633	0.064007185
186	0x3e7fe245	0.24988659
187	0x3d32d378	0.043658704
188	0xbf2cc119	-0.67482144
189	0x3d9cb943	0.07652523
190	0xbe896d0a	-0.26841003
191	0x3d544a0f	0.05182844
192	0x3eaf9910	0.34296465
193	0x3eb894fb	0.36051163
194	0x3eb14200	0.34620667
195	0xbd59694d	-0.05307894
196	0x3d07d61e	0.033163182
197	0xbddc6a36	-0.10762446
198	0x3e5951a2	0.21222547
199	0x3ebb01e5	0.36524883
200	0x3e626bc3	0.2211142
201	0x3e9da914	0.3079306
202	0xbe0c5f7c	-0.137083
203	0x3da2a67a	0.07941909
204	0x3dfedbe1	0.12444282
205	0xbe3b39b2	-0.18283728
206	0xbdc53c8a	-0.096306875
207	0x3de9ed1e	0.1142218
208	0x3e132f24	0.14373451
209	0xbd657b5a	-0.05602584
210	0xbf2ed71a	-0.6829697
211	0x3de36e19	0.11104984
212	0x3e89b6a1	0.26897147
213	0x3e790ca5	0.2432123
214	0xbe04c15c	-0.12964386
215	0x3dc8813f	0.09790277
216	0x3e60b320	0.21943331
217	0xbe815d63	-0.2526656
218	0xbdffa1f6	-0.124820635
219	0x3e13b5ac	0.14424771
220	0x3ec6bb2e	0.38814682
221	0x3d4a8eb4	0.0494525
222	0xbe9ba534	-0.30399477
223	0x3e8a9255	0.27064767
224	0xbd321206	-0.04347422
225	0x3eba4505	0.36380783
226	0xbe91dfbd	-0.2849101
227	0x3e9251f7	0.2857816
228	0xbd315262	-0.043291457
229	0x3e225567	0.15852891
230	0x3df46475	0.11933223
231	0xbd63419b	-0.055482488
232	0xbee9acf7	-0.45639774
233	0x3e7eddec	0.24889344
234	0x3e639ea4	0.22228485
235	0xbebbb36b	-0.36660323
236	0x3ed69bca	0.41915733
237	0xbf159325	-0.5842765
238	0x3e302892	0.17202976
239	0xbb91e4d8	-0.004452329
240	0xbd83e074	-0.064392954
241	0xbdfaa95f	-0.12239336
242	0x3ce23981	0.02761531
243	0x3e598ed8	0.21245897
244	0x3dc7c50c	0.097543806
245	0xbeae7144	-0.3407079
246	0x3e4cc058	0.19995248
247	0x3e5bb27b	0.21454804
248	0xbed418f7	-0.41425297
249	0xbedd6514	-0.4324118
250	0xbf12617b	-0.57179993
251	0xbcca4566	-0.024691295
252	0x3c2e5b07	0.01064182
253	0x3dc41188	0.09573656
254	0xbdce20a2	-0.10064818
255	0x3e14f677	0.14547144

fc3.bias f4 [4]
0	0x3f16e57f	0.58943933
1	0x3ef1555d	0.4713544
2	0x3ecba5c4	0.39774907
3	0x3ece9e44	0.40355122
